app/src/main/assets/mercy_vision_v1_1.0_48.tflite (tflite, 236964 bytes, 43 tensors)

model/conv2d/Conv2D/ReadVariableOp f4 [1, 3, 3, 8]
0	0x3e891221	0.26771644
1	0x3c0ed533	0.008717823
2	0x401cfb74	2.4528475
3	0xbe40255c	-0.18764251
4	0xbfc74d43	-1.5570453
5	0x0741f99a	1.4593058e-34
6	0x07cc23eb	3.071562e-34
7	0x098f3a33	3.4480728e-33
8	0xbfd5f6f5	-1.671599
9	0xbeecffe9	-0.46288994
10	0x407031ac	3.7530317
11	0xbea09e41	-0.31370738
12	0xc02d6a46	-2.7096114
13	0x098d1978	3.3968466e-33
14	0x09002234	1.5423522e-33
15	0x093f5b53	2.303373e-33
16	0xbf81992b	-1.0124868
17	0xbe8ac989	-0.27106884
18	0x406a6b65	3.6628048
19	0x4077650b	3.8655422
20	0xbfb99a15	-1.4500147
21	0x89497ed0	-2.4254122e-33
22	0x88943335	-8.919465e-34
23	0x08eaffaf	1.4143474e-33
24	0x3e190327	0.14942609
25	0x3eaa242a	0.33230716
26	0x3e8e41be	0.27784532
27	0xc03acf41	-2.9188998
28	0xbf88a77e	-1.0676115
29	0x093292e1	2.1495033e-33
30	0x07ce67f0	3.1056524e-34
31	0x88c630f2	-1.19281985e-33
32	0xbfb36393	-1.4014763
33	0x3f09de4c	0.53854823
34	0xbff8c9bd	-1.9436566
35	0xc0a456df	-5.1356044
36	0xbea34bf4	-0.31893885
37	0x88db5c9d	-1.3202356e-33
38	0x88e02954	-1.3491226e-33
39	0x894981a7	-2.4255457e-33
40	0xbed159df	-0.4088888
41	0x3f077999	0.5291992
42	0x3e8aac83	0.2708474
43	0x406de4e8	3.7170963
44	0x3f8238cd	1.0173584
45	0x085315fd	6.352135e-34
46	0x87e2f438	-3.414824e-34
47	0x09b02674	4.240662e-33
48	0x3f286573	0.657798
49	0x3e89fc44	0.26950276
50	0xbfef484a	-1.8693936
51	0x3f1d95ff	0.61557
52	0x3f300da3	0.6877081
53	0x08da91f9	1.3154716e-33
54	0x0809773f	4.136711e-34
55	0x8902bada	-1.5736038e-33
56	0xbed3ee12	-0.4139257
57	0x3f8f3095	1.1186701
58	0xc08ce3f8	-4.402828
59	0xbf2571f2	-0.6462699
60	0x4067dbf9	3.622801
61	0x8a0015b7	-6.16706e-33
62	0x88ec5a18	-1.4224914e-33
63	0x8928e263	-2.0328711e-33
64	0x3e83c1da	0.25733835
65	0x3f1c7977	0.6112284
66	0xc00b9034	-2.1806765
67	0x3f83aa5d	1.0286366
68	0x4010045a	2.2502656
69	0x893477e3	-2.1723082e-33
70	0x881b2563	-4.6687564e-34
71	0x09ab10c2	4.118251e-33

model/conv2d/Conv2D_bias f4 [8]
0	0xbf658f17	-0.8967146
1	0x3f0cb3f0	0.5496206
2	0x3f9dfe7e	1.234329
3	0x40208e52	2.5086865
4	0x3f7d6fb5	0.98998576
5	0xbf188184	-0.59572625
6	0xbe337421	-0.17524768
7	0xbf07441a	-0.5283829

model/conv2d_1/Conv2D/ReadVariableOp f4 [8, 3, 3, 8]
0	0xbd2130e4	-0.039353266
1	0x3d85dce3	0.065362714
2	0x3cd7540b	0.026285192
3	0x3cfb5466	0.030679893
4	0xbe045956	-0.12924704
5	0x07d6fed7	3.2348923e-34
6	0x092e3ab2	2.0972087e-33
7	0x88a99685	-1.02067045e-33
8	0xbd97060b	-0.073741995
9	0x3df40b5e	0.119162306
10	0xbda2b76c	-0.07945141
11	0x3aae7785	0.0013310766
12	0x3e0a5c68	0.13511813
13	0x096856ff	2.796689e-33
14	0x094ec807	2.48904e-33
15	0x08a443e8	9.886356e-34
16	0x3ba844a7	0.005135137
17	0x3d782241	0.060579542
18	0xbd9c1dea	-0.07622893
19	0xbe0f7ff6	-0.14013657
20	0x3d4180f5	0.047242124
21	0x09640042	2.7444623e-33
22	0x08215610	4.855034e-34
23	0x0833be4b	5.408954e-34
24	0xbc896291	-0.016770633
25	0x3dee0e3a	0.11623807
26	0xbcb8ed70	-0.022574157
27	0x3ea531af	0.32264468
28	0x3e99c5bd	0.30033675
29	0x88b58d4a	-1.0926758e-33
30	0x0925476d	1.9894737e-33
31	0x07ce7b24	3.106781e-34
32	0xbdc3e651	-0.09565414
33	0x3df9b113	0.12191977
34	0xbdd7d2f4	-0.10538283
35	0x3de948d9	0.11390848
36	0x3e6de77d	0.23232837
37	0x08b90436	1.11352725e-33
38	0x097fb9f4	3.0781943e-33
39	0x876bfc96	-1.7753663e-34
40	0xbd29b1e1	-0.041429404
41	0xbc411b2d	-0.011786264
42	0xbcdaa05c	-0.026687793
43	0xbe0362c7	-0.1283065
44	0x3e0042a9	0.12525429
45	0x0943c77f	2.3566074e-33
46	0x078194ee	1.9497296e-34
47	0x882165c5	-4.8568805e-34
48	0x3ca16059	0.019699262
49	0x3c8c3818	0.017116591
50	0xbd14409d	-0.036194433
51	0x3e843365	0.2582046
52	0x3e083ef6	0.13305268
53	0x891ecaaa	-1.911385e-33
54	0x091762e2	1.8222458e-33
55	0x87e3ba09	-3.4264505e-34
56	0xba833e1f	-0.001001302
57	0x3b040a2c	0.0020147664
58	0xbe003828	-0.12521422
59	0x3d98d1d8	0.074618995
60	0x3e45ce98	0.1931709
61	0x087d8a24	7.62968e-34
62	0x097dec8c	3.0564991e-33
63	0x064955f5	3.786705e-35
64	0xbda4a6d7	-0.08039635
65	0x3c67145a	0.014103973
66	0xbd160c28	-0.036632687
67	0xbe9241c6	-0.28565806
68	0x3df64f12	0.120268
69	0x09526131	2.532353e-33
70	0x0972c6e3	2.9223206e-33
71	0x06c7d929	7.517457e-35
72	0x3ddd4054	0.10803285
73	0xbd91dde0	-0.071223974
74	0xbe1502a1	-0.14551784
75	0xbd892ba4	-0.06697777
76	0x3dc5bd0f	0.09655201
77	0x091283ca	1.7636078e-33
78	0x88feaefb	-1.5328207e-33
79	0x88a558a6	-9.951417e-34
80	0x3d91caec	0.071187824
81	0xbde6bc54	-0.112663895
82	0xbe4ae244	-0.19812876
83	0xbd05c917	-0.032662477
84	0x3ddda12b	0.10821756
85	0x091c0dbd	1.8784277e-33
86	0x89052186	-1.6025055e-33
87	0x080a5512	4.1627864e-34
88	0x3dd3335c	0.103125304
89	0xbdc37168	-0.09543115
90	0xbe745d6f	-0.23863767
91	0xbd6c6c02	-0.05772019
92	0x3de4151d	0.111368395
93	0x08f79393	1.4900466e-33
94	0x08f45cbd	1.47070185e-33
95	0x88d8a028	-1.303768e-33
96	0x3c7d6527	0.015466011
97	0xbd9f1f52	-0.07769646
98	0xbe033a8c	-0.12815303
99	0x3c8895d1	0.016673
100	0xbd1f772d	-0.038932014
101	0x891b4335	-1.8689047e-33
102	0x0941ffef	2.335187e-33
103	0x8862b29d	-6.821936e-34
104	0xbc2be8c4	-0.010492507
105	0xbdd4ae7b	-0.10384842
106	0xbdd94837	-0.10609477
107	0xbda5ac3d	-0.080894925
108	0xbdf8ba4a	-0.12144907
109	0x08fa7bc8	1.50754285e-33
110	0x08f65d85	1.4827573e-33
111	0x091eda6f	1.9121265e-33
112	0x3c0770fc	0.008266684
113	0xbdcf9286	-0.10135369
114	0xbe0b460e	-0.13600942
115	0x3c8f54f6	0.017496567
116	0xbd883a12	-0.06651701
117	0x08d79e8c	1.2977116e-33
118	0x08ce1612	1.2403363e-33
119	0x890994fa	-1.6560824e-33
120	0x3d43c08b	0.047791045
121	0xbd645d45	-0.05575301
122	0xbdc9b4b6	-0.09848921
123	0xbda9d5c8	-0.08292729
124	0x3d5fc17b	0.054627877
125	0x889bbee4	-9.373601e-34
126	0x08bec282	1.1480938e-33
127	0x093d82bc	2.2811518e-33
128	0x3c6c3a35	0.0144181745
129	0xbd0f5c5b	-0.035000186
130	0xbdc04461	-0.09388042
131	0x3d80a709	0.062818594
132	0xbca7ff9c	-0.020507626
133	0x0887c06b	8.170254e-34
134	0x089ae9b0	9.3234775e-34
135	0x07d7dfe2	3.248119e-34
136	0xbbdace38	-0.006677415
137	0x3b6941d1	0.0035592208
138	0xbe50b602	-0.2038193
139	0x3e0df7db	0.1386408
140	0xbd6d1a35	-0.05788632
141	0x88d70d28	-1.2942935e-33
142	0x08c4c1a0	1.1841842e-33
143	0x08d9b937	1.3103756e-33
144	0xbe05cd24	-0.13066536
145	0x3db45225	0.0880473
146	0xbdae36bb	-0.08506533
147	0xbe2d36a9	-0.16915382
148	0x3dd21797	0.10258406
149	0x896b23fa	-2.8304012e-33
150	0x88f1c3c2	-1.4550682e-33
151	0x07b675bb	2.7453512e-34
152	0xbc45759d	-0.012051967
153	0x3df7088e	0.120621786
154	0xbd642b7d	-0.055705536
155	0xbd93b8ee	-0.07213007
156	0x3e022b29	0.12711777
157	0x08e80390	1.396383e-33
158	0x892820f9	-2.0237768e-33
159	0x088698b4	8.100732e-34
160	0xbd352065	-0.044220347
161	0x3dfc1e4c	0.12310466
162	0xbc100093	-0.008789199
163	0x3df17ab0	0.11790979
164	0xbc26b105	-0.010174041
165	0x888f583c	-8.627243e-34
166	0x095df4be	2.6716985e-33
167	0x87119ee1	-1.0955278e-34
168	0xbca07423	-0.019586628
169	0xbd20acd5	-0.039227325
170	0xbe507456	-0.20356879
171	0xbcf8c805	-0.030368814
172	0x3e65a09a	0.22424546
173	0x877763b1	-1.8611511e-34
174	0x88ce52c0	-1.2417628e-33
175	0x0635bc9a	3.418088e-35
176	0x3d4af405	0.04954912
177	0xbcd59678	-0.026072726
178	0xbe1a863d	-0.1509027
179	0xbdd89200	-0.10574722
180	0x3e1fada9	0.1559359
181	0x090bfa67	1.6849255e-33
182	0x89091258	-1.64994e-33
183	0x08c80c11	1.2039899e-33
184	0x3d2db7df	0.04241168
185	0xbce8490a	-0.02835514
186	0xbe0e4574	-0.13893682
187	0xbdd6b076	-0.10482876
188	0x3d0e9d3f	0.03481793
189	0x09392a1a	2.2288361e-33
190	0x093d36e6	2.277586e-33
191	0x086be65c	7.0988526e-34
192	0x3b07837e	0.002067774
193	0xbb4b7bd9	-0.003104916
194	0x3d1d4549	0.038396154
195	0x3e7b3c30	0.24534678
196	0xbe19d432	-0.15022352
197	0x07b4cb24	2.7202785e-34
198	0x88f47843	-1.4713489e-33
199	0x084b2ef4	6.1143284e-34
200	0xbb5db819	-0.0033831655
201	0xbc76e6c4	-0.015069667
202	0x3ddc439e	0.107550845
203	0xbde2441a	-0.110481456
204	0xbe98ef3d	-0.29870024
205	0x08fbe16b	1.51595085e-33
206	0x891e0780	-1.9022085e-33
207	0x87adb2cb	-2.6135232e-34
208	0x38217e09	3.850277e-05
209	0x3cf75e7b	0.030196419
210	0xbc3cef47	-0.011531658
211	0xbe45bad2	-0.19309548
212	0xbdcef8c2	-0.101060405
213	0x091e209d	1.9033893e-33
214	0x092e8842	2.1008556e-33
215	0x8820ccde	-4.838907e-34
216	0x3d6343ed	0.0554847
217	0x3d6f8bf8	0.058483094
218	0x3d5fe4fa	0.05466173
219	0x3dfbccf0	0.12294948
220	0x3d04960c	0.03236966
221	0x0878f28e	7.4914907e-34
222	0x890c4fb1	-1.6889358e-33
223	0x0917c60f	1.826909e-33
224	0x3ca211b6	0.019783836
225	0x3d958ab9	0.0730185
226	0x3d05b72b	0.032645386
227	0xbcfdfa01	-0.031003
228	0x3d8085c6	0.06275515
229	0x0811e8cb	4.3907997e-34
230	0x096292e0	2.727282e-33
231	0x07a98df5	2.5511729e-34
232	0xbd1cc7a6	-0.038276337
233	0x3d3a812f	0.045533355
234	0x3e0a6af0	0.13517356
235	0xbcee7a30	-0.029110998
236	0xbd254952	-0.040353127
237	0x08695fd0	7.0228514e-34
238	0x892309ce	-1.9625021e-33
239	0x08d9a1e5	1.3098274e-33
240	0x3c697a62	0.01425037
241	0xbac078c6	-0.0014684431
242	0x3e24f53b	0.16109173
243	0x3dba99e3	0.09111383
244	0x3da40634	0.08008996
245	0x88a47ea6	-9.900166e-34
246	0x891b6f69	-1.8709831e-33
247	0x093f2425	2.3007784e-33
248	0xbc757583	-0.01498163
249	0xbcfabe6d	-0.03060838
250	0x3e76aa59	0.2408842
251	0xbd8de9a5	-0.0692933
252	0xbdec96cb	-0.11552199
253	0x88eee7c6	-1.4378594e-33
254	0x88dc7335	-1.3267853e-33
255	0x09292a5e	2.0362556e-33

model/conv2d_1/Conv2D_bias f4 [8]
0	0x3fa75b9e	1.3074834
1	0x406534de	3.5813518
2	0x403712eb	2.8605297
3	0xbf395a36	-0.72403276
4	0x3e2f4c4c	0.17118949
5	0xbf63b790	-0.8895197
6	0xbf8f32fd	-1.1187435
7	0x3fb160a9	1.3857623

model/conv2d_2/Conv2D/ReadVariableOp f4 [16, 1, 1, 8]
0	0xbd4643ec	-0.04840462
1	0x3e9756d0	0.2955842
2	0xbb1f7ac7	-0.0024334656
3	0xbf1cab07	-0.61198467
4	0xbd340865	-0.04395332
5	0xbf0b2114	-0.5434735
6	0x3d3c40d6	0.04596027
7	0x3e936900	0.28791046
8	0x3f5ea601	0.8697205
9	0xbc0912df	-0.008366316
10	0x3f366db5	0.7126115
11	0x3f4c3355	0.79765826
12	0x3f40a3f0	0.7525015
13	0xbf25e57e	-0.648033
14	0x3edb2233	0.4279953
15	0x3f26057d	0.64852124
16	0x3eb7b7bb	0.35882363
17	0x3dc4ebfd	0.09615324
18	0x3d943a61	0.072376974
19	0xbe23f89f	-0.1601281
20	0xbe3bc253	-0.18335848
21	0xbd240f42	-0.040053613
22	0xbe0ad7d6	-0.13558897
23	0xbe07b4b1	-0.13252522
24	0xbdfd8e21	-0.123806246
25	0x3f1a07f2	0.60168374
26	0x3a202baf	0.0006110025
27	0xbf03ef68	-0.5153718
28	0xbde3e296	-0.11127202
29	0x3de5aceb	0.11214622
30	0xbfa44bf2	-1.2835677
31	0x3e3d3f3a	0.1848115
32	0x3ce7eaf7	0.028310282
33	0x3e99dbee	0.30050606
34	0x3eb5cbe2	0.35507113
35	0x3f495d82	0.78658307
36	0x3ef198f9	0.4718702
37	0x3fe5c9a4	1.7952161
38	0xbef1880b	-0.47174105
39	0x3ee97988	0.45600533
40	0xbe5a5b5c	-0.21323913
41	0xbef82090	-0.48462343
42	0xbe61fdd1	-0.2206948
43	0x3bf6a140	0.0075265467
44	0x3e953657	0.2914302
45	0xbd1b436e	-0.037906103
46	0xbdd37151	-0.10324348
47	0x3e5c53aa	0.2151629
48	0x3eadd790	0.33953524
49	0xbc981ec5	-0.01856936
50	0x3e30a4be	0.17250344
51	0x3ef5bc24	0.47995102
52	0x3d6cce52	0.05781395
53	0xbe14dbd2	-0.1453698
54	0x3eae92ef	0.34096476
55	0x3b50eb4c	0.003187853
56	0x3e5fb7f7	0.21847521
57	0xbe91ce57	-0.28477737
58	0xbe5ac899	-0.21365584
59	0x3e74ed49	0.23918642
60	0xbd978ca5	-0.07399873
61	0xbc2ef4f6	-0.01067852
62	0x3cdc26c8	0.026873961
63	0xbec13ea2	-0.37743098
64	0xbe04f21e	-0.12982985
65	0xbf2e70a9	-0.68140656
66	0xbe40ec8a	-0.18840232
67	0xbebb52c6	-0.3658659
68	0x3e6f3dc9	0.23363413
69	0xbf14210f	-0.57862943
70	0x3e0c0f87	0.13677798
71	0xbf300108	-0.68751574
72	0x3e0b70ad	0.13617201
73	0x3ebf862f	0.3740706
74	0xbdf962b1	-0.12177027
75	0xbeb36fd2	-0.3504625
76	0xbe8010d6	-0.25012845
77	0x3ecc2037	0.39868328
78	0xbd458c43	-0.048229467
79	0x3ef37a2b	0.47554144
80	0xbc65b803	-0.014020923
81	0xbdd9e143	-0.106386684
82	0xbef665fb	-0.4812468
83	0x3f5dfd51	0.86714655
84	0xbe11f003	-0.14251713
85	0x3f5870d9	0.8454719
86	0xbc82dfbb	-0.015975824
87	0x3e2afa1f	0.16696976
88	0xbeef7538	-0.46769118
89	0xbedee0f2	-0.43530995
90	0x3eff47ff	0.49859616
91	0x3ed18888	0.40924478
92	0x3f13ef06	0.57786596
93	0x3ec3ab64	0.38216698
94	0x3d1564e5	0.036473174
95	0x3ce24aa0	0.027623475
96	0xbe70de0d	-0.23522206
97	0x3ecd7a75	0.4013249
98	0x3e8f5e25	0.28001514
99	0x3e965b5a	0.2936657
100	0x3e27811e	0.16357848
101	0x3ed7d238	0.42152572
102	0xbe0a9371	-0.13532807
103	0x3df2b01d	0.11849997
104	0x3ebb9f36	0.36644906
105	0x3f52affa	0.8229977
106	0x3e81d4b8	0.25357604
107	0xbe8f89fd	-0.28034964
108	0x3ebdccd2	0.37070328
109	0x3f642809	0.8912359
110	0x3e528ac0	0.20560741
111	0xbe8f7862	-0.28021532
112	0xbe568c75	-0.20952018
113	0xbf78fe1e	-0.9726275
114	0xbe5e6056	-0.21716437
115	0x3e811618	0.2521217
116	0x3e8475ec	0.25871217
117	0xbd5ac19c	-0.053407297
118	0x3ebe9dc0	0.3722973
119	0xbe7a97cd	-0.2447197
120	0x3e427fe6	0.18994102
121	0x3e7b70e7	0.24554788
122	0xbc4b31e0	-0.012402028
123	0xbebd28c3	-0.3694516
124	0xbe8a3b7d	-0.2699851
125	0xbed8fc75	-0.4238011
126	0x3effff85	0.49999633
127	0xbeed5b4e	-0.46358722

model/conv2d_2/Conv2D_bias f4 [16]
0	0x3f86e662	1.0539057
1	0xc0a99bae	-5.300254
2	0xbe9261da	-0.2859028
3	0xbe91d818	-0.2848518
4	0xc0b49559	-5.643231
5	0x3fefe466	1.8741577
6	0xc0102025	-2.251962
7	0xbee8574f	-0.4537911
8	0x40cb9e96	6.3631086
9	0x3f83ce04	1.0297246
10	0xbf9202f5	-1.1407152
11	0xbf148084	-0.580086
12	0xbff6c6fc	-1.9279475
13	0xc0500454	-3.2502642
14	0x4034ebeb	2.8268993
15	0xbe932c1c	-0.2874459

model/conv2d_3/Conv2D/ReadVariableOp f4 [32, 1, 1, 16]
0	0x3d4a3e4f	0.04937583
1	0x3d874624	0.06605175
2	0x3e1d05e2	0.15334275
3	0xbdb4ca8d	-0.08827696
4	0xbd08b4c7	-0.033375528
5	0xbcda6b01	-0.026662352
6	0x3e3d4dcd	0.1848671
7	0xbd2edb40	-0.04268956
8	0xbd5a0f73	-0.05323739
9	0xbcd1be68	-0.025603488
10	0x3d911b64	0.070853025
11	0xbdae18dc	-0.08500835
12	0xbd9ad972	-0.07561006
13	0xbd7ff7ff	-0.062492367
14	0x3d85f567	0.065409474
15	0x3d686b52	0.056742974
16	0x3de24cf6	0.110498354
17	0x3dca94e4	0.0989168
18	0xbc1e3b87	-0.009657747
19	0xbd66831c	-0.05627738
20	0x3d3c7b4f	0.046016034
21	0xbd264382	-0.040591724
22	0xbd10cb22	-0.035349973
23	0x3cd1a969	0.025593476
24	0x3e4f9bac	0.20274228
25	0x3e2c8c7f	0.1685047
26	0x3e1caf99	0.1530136
27	0x3d47ef2d	0.04881208
28	0xb9914db3	-0.00027714446
29	0x3c5ca0c7	0.013466067
30	0xbcdd083e	-0.02698147
31	0x3d29de0e	0.041471533
32	0x3e29f975	0.16599067
33	0x3ca319ea	0.019909818
34	0xbd55c980	-0.05219412
35	0xbd31b705	-0.04338743
36	0x3dc06a22	0.09395243
37	0xbe381b1c	-0.17979091
38	0xbd942e40	-0.07235384
39	0xbdc40945	-0.095720805
40	0xbdc87bfd	-0.09789274
41	0xbe46f164	-0.1942802
42	0x3c40bd97	0.011763952
43	0xbe014585	-0.12624176
44	0xbdd6e210	-0.10492337
45	0x3e0bf1a8	0.13666403
46	0xbcecbc0b	-0.02889826
47	0xbd5e69d1	-0.054300133
48	0x3d1bbfa9	0.03802458
49	0x3ca91243	0.02063859
50	0x3d100ba6	0.03516736
51	0xbe06488f	-0.13113616
52	0x3cee0440	0.029054761
53	0xbde22030	-0.110412955
54	0xbcaf58a0	-0.021404564
55	0x3e821796	0.2540862
56	0x3e0fc840	0.14041233
57	0x3df604e9	0.12012655
58	0x3e65ac35	0.22428973
59	0xbec0c161	-0.37647536
60	0x3e27f148	0.16400635
61	0x3e9926ae	0.29912323
62	0xbdad1145	-0.084505595
63	0xbea4a0c9	-0.3215392
64	0xbd9e64a8	-0.077340424
65	0xbd10b8d8	-0.03533253
66	0xbd14e192	-0.036347933
67	0xbe877e33	-0.2646347
68	0x3c0a93f8	0.00845813
69	0xbd20f41a	-0.039295293
70	0x3a018e44	0.00049421587
71	0xbc931905	-0.017956266
72	0x3c006126	0.007835662
73	0x3d5b5c2f	0.05355471
74	0xbd8493a7	-0.06473475
75	0xbd3848bc	-0.04499124
76	0x3c08a7e2	0.008340808
77	0xbc0b06a5	-0.008485471
78	0x3e08a684	0.1334477
79	0x3d2ebd5d	0.04266106
80	0xbb8eba1d	-0.0043556825
81	0x3d816ea0	0.06319928
82	0x3da484a9	0.080331154
83	0x3cceb00c	0.02523043
84	0xbd2478a9	-0.040154133
85	0x3e5d2f2c	0.21600026
86	0xbd26551c	-0.04060851
87	0x3db0cceb	0.08632835
88	0xbcda79a4	-0.02666933
89	0x3b63e97f	0.0034776626
90	0x3d12126e	0.035662107
91	0xbce318b7	-0.027721746
92	0x3e96b5c8	0.29435563
93	0x3da560c3	0.080750965
94	0x3d8d54bb	0.06900927
95	0x3bc94a9a	0.0061429264
96	0x3dcd1193	0.10013118
97	0x3d3d4bc2	0.046214826
98	0x3d851a44	0.064991504
99	0x3e088ee4	0.13335758
100	0x3dd22726	0.10261373
101	0xbde0b38d	-0.109717466
102	0x3cfb841e	0.030702647
103	0xbd1f5bc1	-0.038905863
104	0x3ddb3565	0.107035436
105	0x3b58bd84	0.0033071944
106	0x3d9a7468	0.07541734
107	0x3d1a39f9	0.037652943
108	0xbe415226	-0.18878993
109	0x3c831f41	0.016006114
110	0xbd8ce14e	-0.06878911
111	0xbce70ffa	-0.02820586
112	0x3d7df28a	0.06199888
113	0xbe1cde1b	-0.15319102
114	0xbd5edec3	-0.05441166
115	0x3c91bb2c	0.017789446
116	0x3dc6be9d	0.09704325
117	0x3b1a3871	0.0023532177
118	0x3db02f73	0.086028
119	0x3d97fb95	0.07421032
120	0xbca38033	-0.019958591
121	0xbc97a469	-0.018511014
122	0x3d1daa7c	0.038492665
123	0xbd024271	-0.031801645
124	0xbd68d953	-0.05684788
125	0x3e6f95fc	0.23397058
126	0xbdeec324	-0.11658314
127	0xbcd66324	-0.02617032
128	0x3d59f424	0.053211346
129	0xbd82438b	-0.06360539
130	0x3dd07179	0.10177893
131	0x3d30dc2b	0.04317872
132	0xbd652f32	-0.055953212
133	0x3db5263f	0.088451855
134	0x3e87704d	0.26452866
135	0x3df80900	0.121110916
136	0xbdb8e917	-0.09028833
137	0xbc638c53	-0.013888436
138	0x3d281fd6	0.041045986
139	0xbc18ab63	-0.0093182055
140	0xbda05c89	-0.0783015
141	0x3e1ebd05	0.15501793
142	0x3d8df52c	0.069315284
143	0x3e1cf520	0.15327883
144	0xbbbdc8bb	-0.005791751
145	0xbd89b651	-0.06724227
146	0xbd4c3158	-0.049851745
147	0x3da202dd	0.079107024
148	0x3e012f6a	0.12615743
149	0x3ba94f25	0.0051669055
150	0xb988fce4	-0.0002612836
151	0xbd51103c	-0.051040873
152	0x3c4844e8	0.01222346
153	0xbcfe6c26	-0.031057429
154	0x3c281d19	0.010260844
155	0xbbef6473	-0.0073056757
156	0xbd24f848	-0.040275842
157	0x3d9da1a5	0.07696847
158	0xbd622e98	-0.055220217
159	0x3d3c8574	0.04602571
160	0x3c866ad8	0.016408369
161	0x3d8afd9f	0.06786656
162	0x3d13042b	0.035892647
163	0xbd13f7df	-0.03612506
164	0xbd0b507e	-0.03401231
165	0xb949d4e1	-0.00019248157
166	0x3de65576	0.11246769
167	0xbd0eef6f	-0.03489631
168	0x3d18cc86	0.037304424
169	0x3d4f4e95	0.05061205
170	0x3c8aac82	0.016927961
171	0x3da948da	0.082658485
172	0xbd71f72c	-0.059073612
173	0xbd8aa0dc	-0.06768963
174	0x3d4d49df	0.050119277
175	0xbcf526f5	-0.029925803
176	0xbd72af94	-0.059249476
177	0x3caddf8f	0.021224765
178	0xbcacb266	-0.02108116
179	0x3c6a7b1e	0.01431158
180	0xbd786960	-0.06064737
181	0x3c4281f7	0.011871806
182	0xbdb3c19d	-0.08777163
183	0x3ba2c115	0.004966865
184	0xbbbb8858	-0.0057230406
185	0xbc34523a	-0.011005932
186	0xbd8f2ed3	-0.06991353
187	0xbd5bbdbc	-0.05364774
188	0x3ce714ef	0.028208224
189	0xbdc16671	-0.09443367
190	0x3d8fea48	0.070271075
191	0xbe0ca406	-0.13734445
192	0x3e14ece0	0.14543486
193	0x3c2160c8	0.009849735
194	0xbd250b54	-0.040294006
195	0xbe891353	-0.26772556
196	0xbdfa2294	-0.122136265
197	0x3dfb05f0	0.12256992
198	0xbd8a0f00	-0.06741142
199	0x3c04c395	0.008103271
200	0xbe349f65	-0.17638929
201	0xbe236e26	-0.15959987
202	0xbcc2f536	-0.023798566
203	0xbdbe4526	-0.09290533
204	0x3c2f3bd3	0.010695416
205	0x3e50e89e	0.20401236
206	0xbc267a5a	-0.010161007
207	0xbdf5f851	-0.12010253
208	0xbd492d0e	-0.049115233
209	0x3d165fe9	0.03671256
210	0xbca5cd66	-0.020239543
211	0xbde61d41	-0.112360485
212	0x3de084bc	0.10962817
213	0x3d930155	0.071779884
214	0x3dc42dcd	0.09579048
215	0xbd9b1a4c	-0.07573375
216	0x3cf71d59	0.030165361
217	0xbd1d415e	-0.038392417
218	0x3d2a2c65	0.041546244
219	0x3d9dd8cf	0.077073686
220	0xbd22725e	-0.03965985
221	0x3d2776dd	0.04088484
222	0xbd85ef2e	-0.065397605
223	0xbc4ea872	-0.012613403
224	0xbdeef808	-0.11668402
225	0xbe01aace	-0.12662813
226	0x3d62c956	0.05536779
227	0x3dac4207	0.08411031
228	0x3dbbf1a9	0.091769524
229	0x3d811d85	0.063044585
230	0xbd9fd249	-0.078037806
231	0x3cf60e51	0.030036123
232	0xbd556bf9	-0.052104924
233	0x3c091ec9	0.008369156
234	0xbc5c4d2f	-0.013446136
235	0x3b376b1c	0.0027987426
236	0x3d9bd66d	0.07609258
237	0x3ceb20ea	0.028702218
238	0x3ca0e19b	0.019638827
239	0x3dabe962	0.083941236
240	0x3cf8e924	0.030384608
241	0xbe790138	-0.24316871
242	0x3c2cc092	0.010543959
243	0xbe522496	-0.20521769
244	0x3e7f26e7	0.24917184
245	0x3d93133b	0.07181402
246	0x3e0840be	0.13305947
247	0x3cf1139b	0.029428294
248	0x3ad53f11	0.0016269406
249	0x3cb9c639	0.022677528
250	0x3ba72665	0.0051010125
251	0xbdae1f54	-0.08502069
252	0x3d05f6a4	0.032705918
253	0x3ee8b9f2	0.45454365
254	0x3d55afbc	0.052169546
255	0x3e3bf602	0.18355563

model/conv2d_3/Conv2D_bias f4 [32]
0	0xbe9bff4e	-0.3046822
1	0xc03bf456	-2.936788
2	0x3e7ade18	0.24498785
3	0xc01c4f8e	-2.4423556
4	0xbe2aef9c	-0.16692966
5	0xbf3bdd98	-0.73385
6	0xbe2e31a6	-0.17011127
7	0x3f934cbe	1.1507795
8	0x3d205010	0.039138854
9	0xbf4f4ddf	-0.80978197
10	0xbec30e7d	-0.3809699
11	0xbe153d4e	-0.14574167
12	0x3f99eef1	1.2026044
13	0x3f5d2e74	0.86399007
14	0x3fe90de2	1.8207362
15	0xc025c0b0	-2.5898857
16	0xbeed6c68	-0.4637177
17	0x3f4e039a	0.80474246
18	0x3ef72358	0.48269153
19	0x3f359428	0.70929193
20	0xbf890736	-1.0705326
21	0xbefc0c10	-0.49227953
22	0xbfbbd67a	-1.4674828
23	0x3e7e8ead	0.24859114
24	0xbe153196	-0.14569697
25	0xbef0b042	-0.47009474
26	0x3fdcde0c	1.7255263
27	0xbf9e0438	-1.2345037
28	0xbf8cf7ee	-1.1013162
29	0xbfc9aeb7	-1.5756444
30	0xbf38744c	-0.72052455
31	0x4046e17c	3.1075125

model/conv2d_4/Conv2D/ReadVariableOp f4 [64, 1, 1, 32]
0	0xbd55eb36	-0.052226268
1	0x3b8084e4	0.003922092
2	0x3cc09bfa	0.023511875
3	0xbd2713d1	-0.040790383
4	0x3d832f21	0.064054735
5	0xba518bfc	-0.00079935766
6	0x3ce2a655	0.027667204
7	0xbda1b1b2	-0.07895221
8	0xbd191a73	-0.03737874
9	0xbcdc8418	-0.026918456
10	0x3c8eb476	0.017420035
11	0x3c5ca804	0.013467792
12	0xbd147a5c	-0.036249503
13	0x3cd4b68f	0.025965957
14	0xbd004b1c	-0.03132163
15	0x3cb17fb2	0.021667335
16	0x3d448d42	0.047986276
17	0xbd02f8e1	-0.03197563
18	0xbd978fc9	-0.07400472
19	0xbe10a06f	-0.141237
20	0x3e060b55	0.1309026
21	0x3cb1de17	0.021712346
22	0xbb7add23	-0.003827878
23	0xbdad7ec2	-0.08471443
24	0x3c94af8e	0.018150117
25	0x3dc5dcce	0.09661256
26	0xbcfd44e2	-0.030916635
27	0xbc64422f	-0.013931795
28	0xbdee25af	-0.11628281
29	0x3d191454	0.037372902
30	0xbdbebe33	-0.09313621
31	0xbd440c10	-0.047863066
32	0xbde888bc	-0.11354205
33	0xbd0c4983	-0.034249794
34	0xbb65d33a	-0.0035068528
35	0xbb49ca4b	-0.0030790742
36	0x3cb21adb	0.021741321
37	0xbe05c7ac	-0.1306445
38	0xbdbb6208	-0.09149557
39	0xbd2930ea	-0.041306414
40	0x3b9d1e41	0.0047948663
41	0x3dad2d93	0.08455958
42	0x3d699d44	0.057034746
43	0xbab3b610	-0.0013710875
44	0xbd760c36	-0.06007024
45	0xbbaabb42	-0.005210311
46	0xbdcb9ad1	-0.09941638
47	0xbd9e9197	-0.07742613
48	0x3e05ef81	0.13079645
49	0xbcbf1070	-0.023323268
50	0x3df8d1fa	0.12149425
51	0xbde0f64d	-0.10984478
52	0x3d31ac9b	0.0433775
53	0x3c889468	0.016672328
54	0xbc5dd72a	-0.013540069
55	0x3d3c3409	0.045948062
56	0xbd21efdd	-0.039535392
57	0x3d288c28	0.04114929
58	0xbd2a5502	-0.041584976
59	0x3dfc47e0	0.123183966
60	0xbb097681	-0.0020975175
61	0xbb1580fc	-0.0022812476
62	0xbe1250bc	-0.1428861
63	0xbb4301cb	-0.0029755707
64	0x3d01f5e9	0.03172866
65	0x3bcd7296	0.006269763
66	0x3db6632b	0.089056335
67	0x3d38b15b	0.045091014
68	0x3d80c796	0.06288068
69	0xbdb660f5	-0.08905212
70	0x3c92b8be	0.017910358
71	0xbccabb15	-0.02474741
72	0x3d9f28df	0.077714674
73	0x3dafee5e	0.08590387
74	0x3c365b3a	0.011130149
75	0x3d828bab	0.06374296
76	0x3cdc0b9c	0.026861005
77	0x3d01344f	0.031544026
78	0x3e18b636	0.14913258
79	0x3e255317	0.16144978
80	0xbe8bd885	-0.2731363
81	0xbdb2bc89	-0.087273665
82	0x3d77bb70	0.06048149
83	0x3db16a57	0.08662861
84	0xbd3146db	-0.043280464
85	0xbe0642de	-0.13111445
86	0x3e29b058	0.16571176
87	0xbcecc228	-0.028901175
88	0x3cf594aa	0.029978115
89	0xbd34ad94	-0.04411085
90	0x3d5a6389	0.05331758
91	0x3bedbfe1	0.0072555398
92	0x3d01b515	0.031666834
93	0xbe5cddc2	-0.21568969
94	0xbe022fdd	-0.12713571
95	0x3dcfa270	0.10138404
96	0x3da84a0f	0.082172506
97	0xbd3c5e1b	-0.045988183
98	0xbaf193a0	-0.0018430836
99	0x3ccb95db	0.02485173
100	0x3de0f524	0.10984257
101	0x3d988edf	0.074491255
102	0xbd791ab7	-0.060816493
103	0x3d1169cf	0.035501298
104	0x3c1d8d41	0.009616197
105	0x3d99c779	0.075087495
106	0xbd234cb8	-0.039868087
107	0x3c2f765e	0.010709373
108	0xbddd28e7	-0.10798817
109	0x3d4c0e9d	0.049818624
110	0x3c02d084	0.007984284
111	0xbcf14ded	-0.029456103
112	0xbda43773	-0.080183886
113	0x3d69a9e2	0.05704678
114	0x3d304c52	0.043041535
115	0x3d2beded	0.04197495
116	0x3cdb6c49	0.026785033
117	0xbcf4ba4c	-0.02987399
118	0x3d8d7358	0.06906766
119	0x3d8aa141	0.06769038
120	0xbc63ad86	-0.013896352
121	0xbd920e65	-0.07131652
122	0xbded3917	-0.11583155
123	0xbd8c7e90	-0.068600774
124	0x3db8fac8	0.09032208
125	0x3c331a70	0.010931596
126	0x3cdff1a1	0.027336897
127	0x3dd1f3ad	0.102515556
128	0xbd607161	-0.054795627
129	0x3c916fb2	0.017753456
130	0xbd556815	-0.052101213
131	0xbcbfc260	-0.023408115
132	0xbc43a052	-0.011940079
133	0xbcd77bd7	-0.026304169
134	0x3da76228	0.08173019
135	0x3e240a00	0.1601944
136	0x3cbd7032	0.023124788
137	0xbc938b21	-0.018010678
138	0x3cb2d79a	0.021831322
139	0xba9442b2	-0.0011311381
140	0x3bba11b3	0.0056783794
141	0xbac636e7	-0.0015122563
142	0xbda8436c	-0.08215985
143	0xbcc1a9a6	-0.023640465
144	0xbdab0cf7	-0.08352082
145	0xbcba7fcf	-0.022766022
146	0xbe42b5d6	-0.19014677
147	0xbd423652	-0.047415085
148	0xbbd230cc	-0.0064145084
149	0xbc7dfb0b	-0.015501748
150	0x3c827a65	0.015927503
151	0x3cf7278d	0.030170226
152	0x3dbfbe9e	0.09362529
153	0x3d94078e	0.072280034
154	0x3c1dc8d0	0.009630397
155	0xbc665e50	-0.014060572
156	0xbc51b134	-0.012798596
157	0xbd642f60	-0.055709243
158	0xbd801b3b	-0.06255194
159	0x3ca08cb0	0.019598335
160	0xbcece36d	-0.028917039
161	0x3ce2bb7a	0.027677286
162	0xb9ffee68	-0.00048815017
163	0xbd0cb64d	-0.034353543
164	0x3d7d8cb7	0.061901774
165	0xbda0c910	-0.0785085
166	0xbd226325	-0.039645333
167	0x3c8866f6	0.016650658
168	0xbd19973b	-0.03749774
169	0x3d33f797	0.043937292
170	0xbc796777	-0.015222422
171	0xbd24f964	-0.0402769
172	0xbc2ef9a4	-0.010679636
173	0xba97ee37	-0.0011591379
174	0x3d9e729e	0.07736705
175	0x3b882fb8	0.004156079
176	0xbd1e6895	-0.038673956
177	0x3c2d0666	0.010560608
178	0x3d0d58bd	0.034508456
179	0xbd2d2baf	-0.042277988
180	0x3e0804c1	0.13283063
181	0x3cbc42ba	0.022981036
182	0xbd8c18d3	-0.06840672
183	0xbb6d42c9	-0.0036203137
184	0x3d43fcd3	0.047848534
185	0xbdd5ed3d	-0.1044564
186	0xbd015840	-0.031578302
187	0x3ca5ae67	0.020224763
188	0xbdd472e1	-0.10373474
189	0xbe0f3868	-0.13986361
190	0x3d0f0934	0.034920886
191	0xbd8c761e	-0.068584666
192	0x3d23171d	0.039816964
193	0xbd35ed81	-0.044415955
194	0xbc9fce6d	-0.019507611
195	0xbb3453e5	-0.0027515825
196	0xbdba0e81	-0.09084798
197	0xbccabc55	-0.024748007
198	0x3de15996	0.11003415
199	0xbd848c4d	-0.06472073
200	0xbba9d76a	-0.00518315
201	0x3c995d0b	0.018721124
202	0xbde71af4	-0.11284438
203	0x3d043065	0.032272715
204	0xbd6e7d4c	-0.05822496
205	0x3cf098cd	0.029369736
206	0x3d6419ec	0.055688784
207	0x3decc07e	0.115601525
208	0xbd5c73f6	-0.053821526
209	0xbc9bcfeb	-0.019020041
210	0xbdc48425	-0.09595517
211	0x3d7778de	0.060418002
212	0xbc1daa28	-0.009623088
213	0xbd221de9	-0.039579306
214	0x3d19f721	0.037589196
215	0x3d8b45bd	0.06800411
216	0x3d38271c	0.044959173
217	0x3d6cd81e	0.057823293
218	0x3e2cf449	0.16890062
219	0x3bfbdfbc	0.0076865833
220	0xbd3a2229	-0.045442734
221	0xbeaac98c	-0.33356893
222	0xbd9c40b0	-0.07629526
223	0x3d6c0dc4	0.057630315
224	0xbd95109b	-0.07278558
225	0xbd9e9a87	-0.077443175
226	0xbd775103	-0.060379993
227	0xbb267d17	-0.002540415
228	0x3c99b1c9	0.018761532
229	0xbd3ef698	-0.04662189
230	0xbc9e6462	-0.019334976
231	0xbd469838	-0.04848501
232	0xbcbe0b24	-0.023198672
233	0x3df48831	0.11940039
234	0x3c26e4d7	0.010186396
235	0x3cc46a41	0.023976447
236	0xbca406fe	-0.020022865
237	0xbe0c5834	-0.13705522
238	0x3c871ffb	0.016494742
239	0x3cea5ac3	0.028607732
240	0xbcd277e1	-0.025691928
241	0x3d831dfe	0.06402205
242	0x3dd12317	0.10211771
243	0x3c41086f	0.011781796
244	0x3dba6b92	0.09102549
245	0x3ca362e3	0.019944614
246	0xbc8f871a	-0.017520476
247	0xbdd0f739	-0.10203404
248	0x3d084503	0.03326894
249	0xbd99b917	-0.07506006
250	0xbd9c5d6d	-0.07635007
251	0x3d9aabea	0.07552321
252	0xbdf6295e	-0.12019609
253	0xbd20ed2f	-0.039288696
254	0x3a6cdf99	0.0009036004
255	0xbc0b190b	-0.008489857

model/conv2d_4/Conv2D_bias f4 [64]
0	0xbc3d3a00	-0.011549473
1	0x3f194fb0	0.5988722
2	0xc00be10e	-2.1856112
3	0xbe7726c1	-0.24135877
4	0xbfd6ae06	-1.6771858
5	0xbedea446	-0.43484706
6	0xbf9aa77b	-1.2082361
7	0x3fc2a00b	1.5205091
8	0xbed87108	-0.42273736
9	0xbfaae593	-1.335131
10	0xbf90c258	-1.1309309
11	0xbfbe0ed7	-1.4848279
12	0x3dc4d724	0.09611347
13	0xbf6cb6f8	-0.9246669
14	0x3ebac9a3	0.36481962
15	0xbf878e43	-1.059029
16	0xc01e0370	-2.4689598
17	0x3f5fd0ed	0.8742817
18	0x3fc903eb	1.5704321
19	0x3f40c5ee	0.75302017
20	0x3e481bfc	0.19541925
21	0x3c873c20	0.016508162
22	0xbf88d346	-1.0689476
23	0xc01427de	-2.3149333
24	0x3f102fb0	0.56322765
25	0x3f0bf9a8	0.5467782
26	0xbe9b6cf8	-0.30356574
27	0xbfd1528a	-1.6353314
28	0xbf3fb7ba	-0.7488972
29	0xc01a64f4	-2.4124117
30	0xc00405b5	-2.0628483
31	0xbf079b63	-0.52971476
32	0xbf60d1f6	-0.87820375
33	0x3d5ddfa0	0.054168344
34	0xbea69b6b	-0.3254045
35	0x3c7c2c80	0.015391469
36	0xbf669431	-0.9006987
37	0xbebfecfc	-0.37485492
38	0x3fb3c872	1.4045546
39	0x3fc22cba	1.51699
40	0xc00d54eb	-2.208308
41	0xbfd700f8	-1.6797171
42	0xbfcb3f1f	-1.5878638
43	0xbfd9364b	-1.6969694
44	0x3e86a0d1	0.26294568
45	0xbef39448	-0.47574067
46	0xbf91fa7a	-1.1404564
47	0x3f9bc514	1.2169518
48	0x3ef28355	0.47365823
49	0xbf47ddbd	-0.7807272
50	0x3f69f8ec	0.9139545
51	0xbfae991e	-1.3640478
52	0x3f926fb9	1.1440345
53	0xbfce7d66	-1.6132019
54	0xbf483e56	-0.7822012
55	0xbf81d3ca	-1.0142758
56	0xbe7a591c	-0.24448055
57	0xbeb91b6c	-0.36153734
58	0x3f1fd150	0.6242876
59	0x3e6c2d48	0.23064148
60	0x3fd93930	1.6970577
61	0xbf452250	-0.7700548
62	0x3ce8eb88	0.028432623
63	0xbe6be9d8	-0.23038423

model/conv2d_5/Conv2D/ReadVariableOp f4 [128, 1, 1, 64]
0	0xbc220753	-0.009889442
1	0x3c251217	0.010075114
2	0xbb915a3d	-0.004435806
3	0xbb0f26ba	-0.0021843151
4	0x3afb4c58	0.0019172532
5	0xbbf65c68	-0.00751834
6	0xbbdd0beb	-0.0067458055
7	0xbb8e2f91	-0.0043391665
8	0xbaaf963a	-0.0013396211
9	0xbb819007	-0.003953937
10	0x3be46712	0.0069702948
11	0x3c4b7654	0.012418348
12	0x3ada6731	0.0016662834
13	0xbc0d76e8	-0.0086343065
14	0xb9642659	-0.0002175806
15	0xbb51fd1b	-0.0032041732
16	0xbc129f47	-0.0089491075
17	0xba37d4f0	-0.0007012626
18	0xbb96b20b	-0.004598861
19	0xba07f2eb	-0.0005186039
20	0x3b9afef0	0.004730098
21	0x3b4466d6	0.0029968522
22	0xbcb52398	-0.022111699
23	0x3bada360	0.005299017
24	0x3a65d9d6	0.0008768117
25	0xbb91279a	-0.0044297697
26	0x3bc496d7	0.005999427
27	0xbc7cf145	-0.0154383825
28	0xbbdee795	-0.006802509
29	0x3baa570f	0.0051983665
30	0xbc58572a	-0.013204375
31	0xbbb675e0	-0.005568251
32	0xbb9640a5	-0.004585343
33	0xbb507b74	-0.0031811865
34	0xbafb1261	-0.0019155258
35	0xbbbb3c99	-0.005714011
36	0xbc987267	-0.018609239
37	0x3c3e8d99	0.011630439
38	0x3aecc261	0.00180633
39	0xbbba8df2	-0.0056931907
40	0x3a6b5802	0.0008977653
41	0x3c359777	0.011083475
42	0xbbcf6239	-0.0063288477
43	0x3b724aaa	0.0036970773
44	0xbbaf7e88	-0.00535566
45	0xbb624c3c	-0.0034530303
46	0x3aaf207a	0.0013361119
47	0x3cc46fd0	0.023979098
48	0xbcac2d97	-0.021017833
49	0x3b6ea609	0.0036414883
50	0xbb967e72	-0.00459271
51	0x3ace5242	0.0015741067
52	0x3c4d4bde	0.012530295
53	0xbb3cf4a3	-0.0028832338
54	0xbc50abce	-0.012736274
55	0x3bec7092	0.007215568
56	0xbc395225	-0.011311089
57	0xbbfa1ab9	-0.00763258
58	0xbb58251e	-0.0032981108
59	0xbb80540a	-0.0039162682
60	0x3c21be1f	0.009871989
61	0x3bb1582d	0.0054121227
62	0x3c4b244f	0.012398793
63	0x3b9a6373	0.0047115623
64	0xbbe14569	-0.0068747294
65	0xb969d84d	-0.0002230119
66	0x3c108b96	0.008822342
67	0xba6f8f4a	-0.0009138478
68	0x3bbaf674	0.005705649
69	0x38c6d15b	9.480371e-05
70	0x3c00785b	0.007841195
71	0x3b051623	0.0020307384
72	0xb8bc3cb5	-8.975846e-05
73	0xbbd1c954	-0.006402174
74	0xbac774b1	-0.0015217272
75	0x3ca2ecc5	0.019888291
76	0x3ba1b9d9	0.004935485
77	0xbbab9491	-0.0052362164
78	0x3b9555bd	0.00455734
79	0xbb7e40a3	-0.003879585
80	0xbc137f6c	-0.009002548
81	0x3c550adb	0.013003076
82	0xbb964b3e	-0.0045866063
83	0xbb9ee149	-0.0048486334
84	0x3ad2f6bc	0.0016095261
85	0xba520b06	-0.0008012507
86	0xbbc922ca	-0.0061381804
87	0x3c79d7fe	0.01524925
88	0xbc484fea	-0.012226084
89	0xbb9024b6	-0.0043989075
90	0xbb02efc7	-0.0019979344
91	0xbb9eb275	-0.004843051
92	0xbbbd3a10	-0.005774744
93	0xbbd86a97	-0.0066045034
94	0x3a4278e6	0.0007418528
95	0x3bb2ab6a	0.005452563
96	0x3c02f7f0	0.007993683
97	0xbc45b962	-0.0120681245
98	0x3c0b1da7	0.008490956
99	0xbbda2af2	-0.0066579515
100	0xbbd2ba92	-0.0064309323
101	0x3b7dc738	0.003872348
102	0xb9ae7431	-0.00033274436
103	0xbc540cc6	-0.012942499
104	0x3be4c1b8	0.006981101
105	0x3c1cded5	0.009574612
106	0x3a127be2	0.0005587918
107	0xbc68424a	-0.014175961
108	0x3b9f92ca	0.0048697935
109	0xbbae8089	-0.005325381
110	0xbba12da4	-0.004918771
111	0x3c2886e5	0.010286068
112	0x3aca6795	0.0015442247
113	0x3bde83ca	0.006790613
114	0xbb9d6b86	-0.0048040776
115	0xbbbe95ba	-0.0058161886
116	0xbc24ac44	-0.010050837
117	0x3c97abb2	0.018514488
118	0xbbcb2bea	-0.0062003033
119	0xba9f16a7	-0.0012137488
120	0x3b5d7e38	0.0033797156
121	0xbb259883	-0.0025267906
122	0x3bd5b0a5	0.006521302
123	0x3b03205f	0.0020008308
124	0x3b914ea1	0.004434422
125	0xbb83b99a	-0.004019928
126	0x3b041bd0	0.002015818
127	0x3b008502	0.0019610529
128	0xba903668	-0.0011002542
129	0xbc40fc94	-0.011778969
130	0xbc47586f	-0.01216708
131	0xbc2546bf	-0.010087668
132	0xbc0e0588	-0.008668311
133	0xba9bdceb	-0.00118914
134	0x3c41f723	0.011838707
135	0x3c1c2c08	0.009531982
136	0xbc9b70f1	-0.018974753
137	0xbc4ba222	-0.012428792
138	0xbc888de1	-0.016669216
139	0x3cc90d77	0.024542553
140	0xbb7bf385	-0.003844471
141	0xbbd954b4	-0.006632412
142	0xbbe5d48e	-0.007013864
143	0xbb03c467	-0.0020106079
144	0xbc3a254d	-0.011361432
145	0xbb137c50	-0.0022504516
146	0xbb3f9fae	-0.0029239464
147	0xbbc8d7bb	-0.0061292327
148	0xbb1364ce	-0.0022490504
149	0xbb9c3258	-0.0047667436
150	0xbca271b8	-0.019829616
151	0x3c9aecfb	0.01891183
152	0x3ba6fdd9	0.005096179
153	0x3c00014a	0.007812807
154	0x3a4d1171	0.00078227284
155	0x3c1cb0c0	0.009563625
156	0x3b80a61b	0.0039260513
157	0x3c2e24af	0.010628863
158	0x3bbc69eb	0.005749931
159	0xbaf0e8ef	-0.0018379966
160	0x3a89c862	0.0010511989
161	0xbc276ebc	-0.010219272
162	0x3bb04e0b	0.005380397
163	0x3bab074f	0.005219377
164	0xbbddbc44	-0.006766828
165	0xbc36a4e3	-0.0111477105
166	0xbbac126f	-0.005251221
167	0xb9d07c12	-0.0003976529
168	0x3d04cfed	0.032424856
169	0xbbd33d67	-0.0064465287
170	0xbb02c5a3	-0.0019954226
171	0x3b006bb8	0.0019595455
172	0xb9be72a9	-0.00036325052
173	0xbbc046bb	-0.0058678067
174	0xbbdd0cba	-0.006745902
175	0x3c5b0ef8	0.013370268
176	0xbc1f39ca	-0.009718368
177	0x3c35a6b3	0.0110871075
178	0xbbab6585	-0.005230608
179	0xbb591be5	-0.0033128199
180	0x3b9ba63a	0.0047500404
181	0x3c1462d1	0.009056763
182	0xbb3df9d7	-0.0028988027
183	0x3bfac219	0.007652533
184	0xbac9d89c	-0.0015399638
185	0xbb2adca4	-0.0026071453
186	0xba9aab24	-0.0011800271
187	0xbae05bc5	-0.0017117193
188	0x3b864362	0.004097388
189	0xbbef85dd	-0.007309659
190	0xbc3e48b8	-0.011614017
191	0x3ba764c9	0.00510845
192	0xb823732c	-3.896949e-05
193	0x3829affa	4.045663e-05
194	0xb89308f1	-7.011172e-05
195	0xb8c25558	-9.2665374e-05
196	0x3706c376	8.032532e-06
197	0x38dcf590	0.00010536157
198	0x370c30a5	8.355976e-06
199	0xb8b1e59d	-8.4827865e-05
200	0x369ed545	4.733595e-06
201	0xb7fff93e	-3.0514431e-05
202	0x38cf0027	9.8705576e-05
203	0x3884bd9f	6.32957e-05
204	0xb9112418	-0.00013841724
205	0xb9075757	-0.0001290714
206	0xb7caf07d	-2.4192263e-05
207	0xb84f5513	-4.9431877e-05
208	0x3825e0e3	3.9548508e-05
209	0xb832664d	-4.2533782e-05
210	0xb724a5b8	-9.813746e-06
211	0x38ccf850	9.77373e-05
212	0x38a44d90	7.8345765e-05
213	0x38494647	4.7987585e-05
214	0x38920806	6.963317e-05
215	0xb8825519	-6.214734e-05
216	0xb86c0fae	-5.6281388e-05
217	0xb83966cb	-4.420317e-05
218	0x390968c7	0.00013104371
219	0xb8a52736	-7.875117e-05
220	0xb93803a4	-0.00017548964
221	0x37881d4d	1.6226108e-05
222	0xb85530c5	-5.0828578e-05
223	0xb8a210e6	-7.7279095e-05
224	0x38a586f2	7.8929486e-05
225	0xb79b3ece	-1.8506686e-05
226	0x3863ed2b	5.4341897e-05
227	0xb8ad024b	-8.24971e-05
228	0xb7e7938b	-2.7606051e-05
229	0xb78d3f67	-1.6838034e-05
230	0xb8d25abf	-0.00010030483
231	0xb7157542	-8.908393e-06
232	0x3894a970	7.08875e-05
233	0x389df048	7.531099e-05
234	0xb8ac262b	-8.2087085e-05
235	0x37d23e82	2.5063058e-05
236	0x33b04d4f	8.209701e-08
237	0x362f48b7	2.6119358e-06
238	0x372ddd6a	1.03631555e-05
239	0x3914d618	0.00014194136
240	0x3804719d	3.1577063e-05
241	0x38cfd9e4	9.9111145e-05
242	0xb8db1df4	-0.00010448313
243	0xb8832cad	-6.254888e-05
244	0x38bd4d2e	9.026598e-05
245	0xb8624119	-5.3943226e-05
246	0xb88144fc	-6.164049e-05
247	0xb85de9df	-5.2908315e-05
248	0x38965434	7.1682414e-05
249	0x380e7651	3.396563e-05
250	0x38979078	7.2271505e-05
251	0xb7bf1c78	-2.2782231e-05
252	0xb84ac1ea	-4.834115e-05
253	0xb857f97f	-5.1492356e-05
254	0x37f1c59b	2.8821456e-05
255	0x382e88e1	4.161231e-05

model/conv2d_5/Conv2D_bias f4 [128]
0	0xbeb9a93e	-0.36261934
1	0xbebfdd14	-0.37473357
2	0xbe8ebbfe	-0.27877802
3	0xbe7d10e0	-0.24713469
4	0xbe10607c	-0.14099306
5	0xbe9a6948	-0.30158448
6	0xbe719ea8	-0.23595679
7	0xbea9b3f2	-0.331451
8	0xbea20759	-0.3164623
9	0xbe971008	-0.29504418
10	0xbe22798a	-0.15866676
11	0xbe2ceb5c	-0.16886657
12	0xbe82f2b5	-0.25575796
13	0xbe2d5547	-0.16927062
14	0xbe4b15e0	-0.19832563
15	0xbeb97926	-0.3622524
16	0xbea071d6	-0.3133685
17	0xbe8eca24	-0.27888596
18	0xbe62c36a	-0.22144857
19	0xbec71abe	-0.3888759
20	0xbe4583fb	-0.19288628
21	0xbe81ed67	-0.25376436
22	0xbe82a9e1	-0.25520232
23	0xbead24e3	-0.33817205
24	0xbe7b56d2	-0.24544838
25	0xbd74c788	-0.0597606
26	0xbee7c710	-0.4526906
27	0xbe966131	-0.29371026
28	0xbe795668	-0.24349368
29	0xbe1c8c4f	-0.15287898
30	0xbf3358de	-0.70057476
31	0xbe6578b0	-0.2240932
32	0xbeb6ffb4	-0.3574196
33	0xbe83095a	-0.25593072
34	0xbd8a7dae	-0.06762253
35	0xbeeb11a5	-0.459119
36	0xbddab8ea	-0.10679801
37	0xbebd24e1	-0.369422
38	0xbe079f24	-0.13244301
39	0xbe9c360a	-0.3050998
40	0xbe486644	-0.19570261
41	0xbe389bb4	-0.18028146
42	0xbe636d89	-0.22209753
43	0xbe4ee3fd	-0.20204158
44	0xbe65c253	-0.2243741
45	0xbe66c42b	-0.2253577
46	0xbee15978	-0.44013572
47	0xbe9b0903	-0.30280313
48	0xbe914182	-0.2837029
49	0xbeb9cd84	-0.36289608
50	0xbe6aa02a	-0.2291266
51	0xbe9d32c4	-0.30702794
52	0xbe20cbda	-0.15702763
53	0xbea1300c	-0.3148197
54	0xbe7549ee	-0.23953983
55	0xbe7fa20f	-0.24964164
56	0xbe4eba18	-0.20188177
57	0xbea0ca34	-0.3140427
58	0xbe0fdb7b	-0.14048569
59	0xbe179988	-0.14804661
60	0xbecab588	-0.39591622
61	0xbed3e777	-0.4138753
62	0xbe469afb	-0.19395058
63	0xbe9efc3b	-0.31051812
64	0xbe25f848	-0.16207993
65	0xbdec61d2	-0.11542095
66	0xbea3ec32	-0.3201614
67	0xbe8b6dde	-0.2723226
68	0xbe7df489	-0.24800314
69	0xbe29094b	-0.16507451
70	0xbeaa77da	-0.33294564
71	0xbea4d8e5	-0.32196727
72	0xbec0dff4	-0.37670863
73	0xbe2bc398	-0.16773832
74	0xbedd36b0	-0.43205786
75	0xbd09bb80	-0.03362608
76	0xbe46a6a1	-0.19399501
77	0xbea2bcb0	-0.31784582
78	0xbe96d1cb	-0.29456934
79	0xbeee3c8e	-0.46530575
80	0xbeea1634	-0.45720065
81	0xbe290649	-0.16506304
82	0xbe5c8353	-0.21534471
83	0xbe491375	-0.19636329
84	0xbca17a38	-0.019711599
85	0xbe9204bc	-0.28519237
86	0xbe8f97c5	-0.28045478
87	0xbeca61ee	-0.3952784
88	0xbe2a74e6	-0.16646156
89	0xbe89b731	-0.26897576
90	0xbed06c3e	-0.40707582
91	0xbeaec19e	-0.34132093
92	0xbe2a43c4	-0.16627413
93	0xbea27ef0	-0.3173747
94	0xbe707d78	-0.23485363
95	0xbe90961e	-0.2823953
96	0xbee7f6fc	-0.45305622
97	0xbed71260	-0.42006207
98	0xbebce0ca	-0.3689025
99	0xbe4d2074	-0.20031911
100	0xbeae6398	-0.3406036
101	0xbe4a59be	-0.19760796
102	0xbe9c6d99	-0.30552366
103	0xbe231620	-0.15926409
104	0xbe992f74	-0.29919016
105	0xbee0dd40	-0.439188
106	0xbee92f44	-0.45543873
107	0xbf050efc	-0.5197599
108	0xbd298a60	-0.04139173
109	0xbeb46a08	-0.35237145
110	0xbeb75c22	-0.3581248
111	0xbe97d06b	-0.29651198
112	0xbe8e66e2	-0.27812868
113	0xbe10e4ca	-0.14149776
114	0xbeadf7f8	-0.33978248
115	0xbebe7689	-0.3719981
116	0xbec4b9ae	-0.38422912
117	0xbe3085aa	-0.17238489
118	0xbea860d1	-0.32886365
119	0xbe97781e	-0.2958383
120	0xbea943c4	-0.33059514
121	0xbefc045e	-0.49222082
122	0xbece7fc6	-0.40331858
123	0xbeb0d7be	-0.34539598
124	0xbedc5cca	-0.43039542
125	0xbe756452	-0.2396405
126	0xbe594142	-0.212163
127	0xbe77a5a1	-0.24184276

model/conv2d_6/Conv2D/ReadVariableOp f4 [7, 3, 3, 128]
0	0xbf8730ba	-1.0561745
1	0x3e811a20	0.25215244
2	0xbfa92dca	-1.3217099
3	0xbc4c69e7	-0.012476421
4	0x3e335daa	0.17516199
5	0x3f40ed21	0.7536183
6	0xbf35955f	-0.7093105
7	0x3f2fb88a	0.6864096
8	0x3fd0bac9	1.6307002
9	0xbe250205	-0.16114052
10	0x3efbcd04	0.49179852
11	0x3e804094	0.2504927
12	0x3f048043	0.5175821
13	0xbfb70a58	-1.4300032
14	0xbf357f72	-0.7089759
15	0xbf4cbfaa	-0.79979956
16	0x3f8930fb	1.0718073
17	0xbf4032fa	-0.75077784
18	0xbfc0e1d1	-1.5068914
19	0x3facc1d9	1.3496658
20	0xbfa85eed	-1.3153969
21	0xbf01bd51	-0.506795
22	0x3fe028d1	1.7512456
23	0x3e8d240d	0.27566567
24	0xbfc3d22c	-1.5298514
25	0xbea85e29	-0.32884338
26	0x3e9b0f99	0.30285338
27	0xbfb8502c	-1.4399467
28	0xbf62b66c	-0.88559604
29	0xbf09a3ef	-0.5376577
30	0x3d40bca6	0.04705491
31	0x3f537a69	0.8260866
32	0xbf27c061	-0.6552792
33	0x3fd14f5b	1.6352342
34	0xbf27d7cb	-0.6556365
35	0x3ed21dbb	0.41038308
36	0x3fb75e51	1.4325658
37	0xbf8d1f3f	-1.102516
38	0x3d8b2781	0.06794644
39	0xbadf4485	-0.001703397
40	0xbe1a4e65	-0.15068968
41	0xbf190442	-0.5977212
42	0x3fe63baf	1.7986964
43	0xbf44e30c	-0.76908946
44	0xbfa02cec	-1.2513709
45	0x3eedc527	0.46439478
46	0xbf30e306	-0.6909641
47	0x3f9bba0e	1.2166154
48	0x3f06c537	0.52644676
49	0xbf43db56	-0.76506555
50	0xbe3683a6	-0.17823657
51	0x3fb51eb6	1.4149997
52	0x3f75e97c	0.96059394
53	0x4014d561	2.3255236
54	0xbf4a5a3d	-0.7904394
55	0xbf3f60c8	-0.7475705
56	0xbfb894b3	-1.4420379
57	0xbe96a057	-0.29419205
58	0xbf28feb3	-0.6601364
59	0xbe5f71d9	-0.21820773
60	0xbf62099c	-0.8829591
61	0xbdb5db04	-0.088796645
62	0xbe8654e5	-0.26236644
63	0xbf2353c3	-0.63799685
64	0xbfc6edc0	-1.5541306
65	0x3fa91170	1.3208447
66	0xbeb99044	-0.36242878
67	0x3eef4625	0.46733204
68	0x3e87200e	0.26391643
69	0x3fb40d56	1.406657
70	0xbf9d4093	-1.2285331
71	0x3f0da106	0.5532383
72	0x3fc0de5c	1.5067859
73	0x3f418791	0.7559748
74	0xbfa8fb89	-1.3201762
75	0x3f0af0a5	0.54273444
76	0x3f838cf1	1.0277387
77	0xbeb6a180	-0.3567009
78	0x3f48c196	0.7842039
79	0xbedbd583	-0.42936334
80	0xbe553aed	-0.2082326
81	0xbe6f5e94	-0.23375922
82	0xbcec216e	-0.028824534
83	0x3f49aec3	0.7878229
84	0x3f413860	0.75476646
85	0xbf93a854	-1.1535745
86	0x3f0a2dd9	0.5397621
87	0x3f4c8215	0.7988599
88	0x3ebb3d34	0.36570132
89	0xbdf4dc23	-0.1195605
90	0x3e4aa117	0.19788013
91	0xbf713092	-0.9421474
92	0xbf1a39ef	-0.6024465
93	0xbf1e7b63	-0.61907023
94	0x3ff3bb3f	1.9041518
95	0xbf670987	-0.9024891
96	0xbfa26b1c	-1.2688937
97	0x3f459b16	0.7718977
98	0xbf46e7d0	-0.7769747
99	0x3eb1f771	0.34759095
100	0x3eba12f4	0.36342585
101	0xbf5d6aad	-0.864909
102	0xbf204f11	-0.62620646
103	0xbf56ebeb	-0.8395373
104	0x3fa17449	1.2613612
105	0x3f3ef03d	0.74585325
106	0xbf47f78f	-0.7811212
107	0x3d9a002f	0.07519566
108	0xbf4f51a1	-0.8098393
109	0xbf7939fc	-0.973541
110	0xbfa4d986	-1.2878883
111	0x3f05e006	0.5229496
112	0x3f07e833	0.5308868
113	0x3e7bfac6	0.24607381
114	0xbfb4e36e	-1.4131906
115	0xbf20ceea	-0.62815726
116	0xbf9ac96c	-1.2092719
117	0x3be48a08	0.0069744624
118	0xbfaaf077	-1.3354634
119	0xbf9f87bc	-1.2463298
120	0xbf5ffb53	-0.87492865
121	0xbf56f4fd	-0.8396757
122	0x3dc070a1	0.09396482
123	0xbec91bf9	-0.39279154
124	0x3f1bcb98	0.60857534
125	0xbf03bfb1	-0.5146437
126	0xbf2f1885	-0.6839679
127	0xbf863852	-1.0485938
128	0xbf202ec2	-0.62571347
129	0x3e3a77ad	0.18209715
130	0xbf0592a1	-0.5217686
131	0xbe69db6f	-0.22837614
132	0x3e768c24	0.24076897
133	0x3e60a93a	0.21939555
134	0xbdcdb1df	-0.10043692
135	0x3edc5d36	0.43039864
136	0x3f47b41d	0.78009206
137	0x3e4b0ca5	0.19829042
138	0x3e3c07f6	0.18362412
139	0x3e9ad72c	0.30242288
140	0x3e88e56a	0.2673753
141	0xbfc6950c	-1.5514235
142	0x3ea50273	0.3222843
143	0x3d06685d	0.032814372
144	0x3f6a4aa1	0.91520125
145	0x3f2646e5	0.64951926
146	0x3eaacf11	0.33361104
147	0x3ee8719b	0.45399174
148	0xbe3f2be3	-0.18669085
149	0x3de3fd35	0.1113228
150	0x3fb3e747	1.4054955
151	0x3e3bcb89	0.18339361
152	0xbf802f0f	-1.0014361
153	0x3f311d04	0.691849
154	0xbdb66981	-0.08906842
155	0xbfa5f599	-1.2965575
156	0xbe657e33	-0.22411422
157	0xbea22da7	-0.31675455
158	0x3eabc42d	0.33548108
159	0xbd080266	-0.033205412
160	0xbe6083bf	-0.21925257
161	0x3eb44a0d	0.35212746
162	0x3e8b6888	0.2722819
163	0xbf5a815b	-0.8535363
164	0x3dee3398	0.116309345
165	0xbeaff1e5	-0.34364238
166	0x3eb6d476	0.3570897
167	0xbf489bb7	-0.783626
168	0xbe26fb9d	-0.1630692
169	0xbf096bc6	-0.53680074
170	0x3f950e05	1.1644903
171	0x3ca9a3e2	0.020708028
172	0x3e0700c8	0.13183892
173	0x3e4804e1	0.19533111
174	0x3daaeb5f	0.08345675
175	0x3f12ae87	0.5729756
176	0xbcb92a92	-0.022603307
177	0x3e2bf377	0.16792093
178	0x3d4b9b89	0.049708877
179	0x3e9014be	0.28140825
180	0x3f31ab43	0.6940195
181	0x3f5b293e	0.85609806
182	0x3c91fda1	0.017821135
183	0xbf052959	-0.52016217
184	0xbf82ee99	-1.0229064
185	0xbed51e96	-0.41624898
186	0xbc2f97c0	-0.010717332
187	0x3d7bfb4e	0.06151896
188	0xbebd4153	-0.369639
189	0x3e0d9549	0.13826479
190	0x3d8869d8	0.06660813
191	0xbf47a518	-0.7798629
192	0xbf077910	-0.529191
193	0x3f89e5b2	1.0773222
194	0xbe5472fc	-0.20746988
195	0x3ebd2942	0.3694554
196	0x3eef777c	0.46770847
197	0x3dc17d61	0.09447742
198	0xbf080911	-0.53138834
199	0x3c96e95c	0.018421821
200	0x3d989d4b	0.07451876
201	0x3f3c6611	0.7359324
202	0x3eb01b3c	0.34395778
203	0x3effbb43	0.49947557
204	0x3ecdf941	0.40229228
205	0xbda96e75	-0.08273021
206	0x3f105875	0.56384975
207	0xbf219c4c	-0.63129115
208	0xbe2b16b9	-0.16707887
209	0xbeeeb990	-0.46625948
210	0x3f3e33dd	0.7429789
211	0x3dd07a45	0.10179571
212	0x3f629a41	0.8851662
213	0x3dcebe6f	0.10094916
214	0x3f6906c8	0.9102597
215	0xbf21e2f1	-0.6323691
216	0x3f5e6a42	0.86880887
217	0x3f5b8624	0.8575156
218	0xbebce1d1	-0.36891034
219	0xbe882ba7	-0.26595804
220	0xbeadc81c	-0.33941734
221	0xbed28e76	-0.41124314
222	0x3d04b2ac	0.032396957
223	0xbeb3ad01	-0.3509293
224	0xbf0ca2bf	-0.5493583
225	0xbee2cf77	-0.44298908
226	0xbe15994a	-0.14609256
227	0xbe96128f	-0.29311034
228	0x3fb63e51	1.4237767
229	0x3f135dbd	0.5756491
230	0x3e91952b	0.2843412
231	0x3d97730e	0.07394992
232	0x3d2fb6f1	0.042899076
233	0x3f0a6295	0.54056674
234	0xbe0f9eb3	-0.14025383
235	0xbe8433c3	-0.2582074
236	0xbf408c8d	-0.75214463
237	0xbfa6bff6	-1.3027332
238	0xbf41c84e	-0.75696266
239	0xbe899387	-0.26870367
240	0xbd16e062	-0.036835082
241	0xbf03122c	-0.51199603
242	0x3da68ba0	0.081321
243	0xbe1784a6	-0.14796695
244	0xbed8c536	-0.4233796
245	0x3ccfd14d	0.025368357
246	0xbee7502f	-0.45178363
247	0xbe32b65f	-0.17452382
248	0x3ed8c1e1	0.42335418
249	0xbe41b498	-0.18916547
250	0xbe03a232	-0.12854841
251	0xbeac81c9	-0.33692768
252	0xbf4da9e3	-0.8033735
253	0xbe53b15c	-0.20673126
254	0xbf26666f	-0.6500005
255	0xbf1941dd	-0.59866124

model/conv2d_6/Conv2D_bias f4 [7]
0	0x3b79e1bf	0.003812894
1	0x3e266c69	0.16252293
2	0xbf137ef0	-0.57615566
3	0xbd111a70	-0.035425603
4	0xbebfe6f6	-0.37480897
5	0x3db69f34	0.08917084
6	0x3eff001d	0.49804774

model/separable_conv2d/separable_conv2d/ReadVariableOp f4 [1, 3, 3, 8]
0	0x3f6b8b27	0.92009205
1	0x4014913d	2.3213646
2	0xbd762ed0	-0.060103238
3	0x3fa82af3	1.3138107
4	0xbf876b79	-1.0579673
5	0x3f5b6da5	0.8571418
6	0x3eacab65	0.33724514
7	0x3fd1867e	1.6369169
8	0xc010702a	-2.256846
9	0x3f22d1dc	0.6360147
10	0x401cd6ec	2.4506178
11	0xbf5c79e7	-0.8612351
12	0x3e925b68	0.28585362
13	0xbe84fc95	-0.25973955
14	0x3e717b48	0.23582184
15	0x3f686c79	0.90790516
16	0x3f974d03	1.1820377
17	0xbe138a88	-0.14408314
18	0x3eab189e	0.3341722
19	0x3e54521d	0.20734449
20	0xbf76bfbd	-0.9638632
21	0xbddcfe80	-0.107907295
22	0xbe2fb874	-0.17160207
23	0xbee4f685	-0.4471933
24	0xbfe69a85	-1.8015906
25	0xbf90541b	-1.1275667
26	0xbf8a7100	-1.0815735
27	0xbe0b4a17	-0.13602482
28	0xbe351d80	-0.17687035
29	0xbfa9dc63	-1.3270382
30	0xbf83f396	-1.0308712
31	0xbff8e7df	-1.9445761
32	0xc005f91b	-2.0933292
33	0xbdc4f619	-0.09617252
34	0x3eb4006b	0.3515657
35	0xc00e5aa4	-2.2242823
36	0x4020632a	2.5060525
37	0xbfe66222	-1.7998698
38	0x3f497965	0.7870086
39	0xbf5623b8	-0.8364825
40	0x3fa5f141	1.296425
41	0x3ecf72d4	0.40517294
42	0x3f098f1e	0.53734004
43	0x3eda46bf	0.426321
44	0xbfadbc5a	-1.3573105
45	0x3dcb1e65	0.09917907
46	0xbf8de73c	-1.1086192
47	0x3da23caa	0.07921727
48	0x3e3cd7ed	0.18441744
49	0xbfa781bf	-1.308647
50	0xbec4feb2	-0.38475567
51	0x3ee2a6fa	0.44268018
52	0xbf579f08	-0.8422704
53	0x3f47c9a1	0.78042036
54	0x3f263117	0.64918655
55	0xbe37fb7e	-0.1796703
56	0x3f4e258d	0.8052605
57	0xbdae5668	-0.085125744
58	0xc017a0ca	-2.3691888
59	0xbe28b181	-0.16473962
60	0x3f94ddc4	1.1630177
61	0xbf2227bc	-0.6334188
62	0x40048768	2.0707645
63	0xbfe230dc	-1.7671161
64	0xbe95a9de	-0.2923116
65	0x3e84c5fa	0.25932294
66	0x3f664ee3	0.8996412
67	0xbe17131a	-0.1475338
68	0xbf258596	-0.6465696
69	0x3eced003	0.40393075
70	0xbec2a1f5	-0.38014188
71	0x3e6d2f2b	0.23162524
